…
del, input_size=(3, 224, 224))","metadata":{"trusted":true,"execution":{"iopub.status.busy":"2025-04-07T18:12:27.437241Z","iopub.execute_input":"2025-04-07T18:12:27.437478Z","iopub.status.idle":"2025-04-07T18:12:29.471346Z","shell.execute_reply.started":"2025-04-07T18:12:27.437458Z","shell.execute_reply":"2025-04-07T18:12:29.470461Z"}},"outputs":[{"name":"stdout","text":"----------------------------------------------------------------\n        Layer (type)               Output Shape         Param #\n================================================================\n            Conv2d-1         [-1, 64, 112, 112]           9,408\n            Conv2d-2         [-1, 64, 112, 112]           9,408\n       BatchNorm2d-3         [-1, 64, 112, 112]             128\n       BatchNorm2d-4         [-1, 64, 112, 112]             128\n              ReLU-5         [-1, 64, 112, 112]               0\n              ReLU-6         [-1, 64, 112, 112]               0\n         MaxPool2d-7           [-1, 64, 56, 56]               0\n         MaxPool2d-8           [-1, 64, 56, 56]               0\n            Conv2d-9           [-1, 64, 56, 56]           4,096\n           Conv2d-10           [-1, 64, 56, 56]           4,096\n      BatchNorm2d-11           [-1, 64, 56, 56]             128\n      BatchNorm2d-12           [-1, 64, 56, 56]             128\n             ReLU-13           [-1, 64, 56, 56]               0\n             ReLU-14           [-1, 64, 56, 56]               0\n           Conv2d-15           [-1, 64, 56, 56]          36,864\n           Conv2d-16           [-1, 64, 56, 56]          36,864\n      BatchNorm2d-17           [-1, 64, 56, 56]             128\n      BatchNorm2d-18           [-1, 64, 56, 56]             128\n             ReLU-19           [-1, 64, 56, 56]               0\n             ReLU-20           [-1, 64, 56, 56]               0\n           Conv2d-21          [-1, 256, 56, 56]          16,384\n      BatchNorm2d-22          [-1, 256, 56, 56]             512\n           Conv2d-23          [-1, 256, 56, 56]          16,384\n           Conv2d-24          [-1, 256, 56, 56]          16,384\n      BatchNorm2d-25          [-1, 256, 56, 56]             512\n      BatchNorm2d-26          [-1, 256, 56, 56]             512\n             ReLU-27          [-1, 256, 56, 56]               0\n       Bottleneck-28          [-1, 256, 56, 56]               0\n           Conv2d-29          [-1, 256, 56, 56]          16,384\n      BatchNorm2d-30          [-1, 256, 56, 56]             512\n             ReLU-31          [-1, 256, 56, 56]               0\n       Bottleneck-32          [-1, 256, 56, 56]               0\n           Conv2d-33           [-1, 64, 56, 56]          16,384\n           Conv2d-34           [-1, 64, 56, 56]          16,384\n      BatchNorm2d-35           [-1, 64, 56, 56]             128\n      BatchNorm2d-36           [-1, 64, 56, 56]             128\n             ReLU-37           [-1, 64, 56, 56]               0\n             ReLU-38           [-1, 64, 56, 56]               0\n           Conv2d-39           [-1, 64, 56, 56]          36,864\n           Conv2d-40           [-1, 64, 56, 56]          36,864\n      BatchNorm2d-41           [-1, 64, 56, 56]             128\n      BatchNorm2d-42           [-1, 64, 56, 56]             128\n             ReLU-43           [-1, 64, 56, 56]               0\n           Conv2d-44          [-1, 256, 56, 56]          16,384\n             ReLU-45           [-1, 64, 56, 56]               0\n      BatchNorm2d-46          [-1, 256, 56, 56]             512\n           Conv2d-47          [-1, 256, 56, 56]          16,384\n             ReLU-48          [-1, 256, 56, 56]               0\n       Bottleneck-49          [-1, 256, 56, 56]               0\n           Conv2d-50           [-1, 64, 56, 56]          16,384\n      BatchNorm2d-51          [-1, 256, 56, 56]             512\n      BatchNorm2d-52           [-1, 64, 56, 56]             128\n             ReLU-53          [-1, 256, 56, 56]               0\n       Bottleneck-54          [-1, 256, 56, 56]               0\n             ReLU-55           [-1, 64, 56, 56]               0\n           Conv2d-56           [-1, 64, 56, 56]          36,864\n           Conv2d-57           [-1, 64, 56, 56]          16,384\n      BatchNorm2d-58           [-1, 64, 56, 56]             128\n      BatchNorm2d-59           [-1, 64, 56, 56]             128\n             ReLU-60           [-1, 64, 56, 56]               0\n             ReLU-61           [-1, 64, 56, 56]               0\n           Conv2d-62          [-1, 256, 56, 56]          16,384\n      BatchNorm2d-63          [-1, 256, 56, 56]             512\n           Conv2d-64           [-1, 64, 56, 56]          36,864\n             ReLU-65          [-1, 256, 56, 56]               0\n       Bottleneck-66          [-1, 256, 56, 56]               0\n      BatchNorm2d-67           [-1, 64, 56, 56]             128\n             ReLU-68           [-1, 64, 56, 56]               0\n           Conv2d-69          [-1, 256, 56, 56]          16,384\n      BatchNorm2d-70          [-1, 256, 56, 56]             512\n           Conv2d-71          [-1, 128, 56, 56]          32,768\n             ReLU-72          [-1, 256, 56, 56]               0\n       Bottleneck-73          [-1, 256, 56, 56]               0\n      BatchNorm2d-74          [-1, 128, 56, 56]             256\n             ReLU-75          [-1, 128, 56, 56]               0\n           Conv2d-76          [-1, 128, 56, 56]          32,768\n      BatchNorm2d-77          [-1, 128, 56, 56]             256\n             ReLU-78          [-1, 128, 56, 56]               0\n           Conv2d-79          [-1, 128, 28, 28]         147,456\n      BatchNorm2d-80          [-1, 128, 28, 28]             256\n             ReLU-81          [-1, 128, 28, 28]               0\n           Conv2d-82          [-1, 512, 28, 28]          65,536\n           Conv2d-83          [-1, 128, 28, 28]         147,456\n      BatchNorm2d-84          [-1, 128, 28, 28]             256\n      BatchNorm2d-85          [-1, 512, 28, 28]           1,024\n             ReLU-86          [-1, 128, 28, 28]               0\n           Conv2d-87          [-1, 512, 28, 28]          65,536\n      BatchNorm2d-88          [-1, 512, 28, 28]           1,024\n           Conv2d-89          [-1, 512, 28, 28]         131,072\n           Conv2d-90          [-1, 512, 28, 28]         131,072\n      BatchNorm2d-91          [-1, 512, 28, 28]           1,024\n      BatchNorm2d-92          [-1, 512, 28, 28]           1,024\n             ReLU-93          [-1, 512, 28, 28]               0\n       Bottleneck-94          [-1, 512, 28, 28]               0\n             ReLU-95          [-1, 512, 28, 28]               0\n       Bottleneck-96          [-1, 512, 28, 28]               0\n           Conv2d-97          [-1, 128, 28, 28]          65,536\n      BatchNorm2d-98          [-1, 128, 28, 28]             256\n           Conv2d-99          [-1, 128, 28, 28]          65,536\n            ReLU-100          [-1, 128, 28, 28]               0\n     BatchNorm2d-101          [-1, 128, 28, 28]             256\n            ReLU-102          [-1, 128, 28, 28]               0\n          Conv2d-103          [-1, 128, 28, 28]         147,456\n     BatchNorm2d-104          [-1, 128, 28, 28]             256\n            ReLU-105          [-1, 128, 28, 28]               0\n          Conv2d-106          [-1, 512, 28, 28]          65,536\n     BatchNorm2d-107          [-1, 512, 28, 28]           1,024\n            ReLU-108          [-1, 512, 28, 28]               0\n      Bottleneck-109          [-1, 512, 28, 28]               0\n          Conv2d-110          [-1, 128, 28, 28]         147,456\n          Conv2d-111          [-1, 128, 28, 28]          65,536\n     BatchNorm2d-112          [-1, 128, 28, 28]             256\n     BatchNorm2d-113          [-1, 128, 28, 28]             256\n            ReLU-114          [-1, 128, 28, 28]               0\n            ReLU-115          [-1, 128, 28, 28]               0\n          Conv2d-116          [-1, 128, 28, 28]         147,456\n          Conv2d-117          [-1, 512, 28, 28]          65,536\n     BatchNorm2d-118          [-1, 128, 28, 28]             256\n     BatchNorm2d-119          [-1, 512, 28, 28]           1,024\n            ReLU-120          [-1, 128, 28, 28]               0\n          Conv2d-121          [-1, 512, 28, 28]          65,536\n            ReLU-122          [-1, 512, 28, 28]               0\n      Bottleneck-123          [-1, 512, 28, 28]               0\n          Conv2d-124          [-1, 128, 28, 28]          65,536\n     BatchNorm2d-125          [-1, 512, 28, 28]           1,024\n     BatchNorm2d-126          [-1, 128, 28, 28]             256\n            ReLU-127          [-1, 512, 28, 28]               0\n      Bottleneck-128          [-1, 512, 28, 28]               0\n          Conv2d-129          [-1, 128, 28, 28]          65,536\n            ReLU-130          [-1, 128, 28, 28]               0\n          Conv2d-131          [-1, 128, 28, 28]         147,456\n     BatchNorm2d-132          [-1, 128, 28, 28]             256\n            ReLU-133          [-1, 128, 28, 28]               0\n          Conv2d-134          [-1, 128, 28, 28]         147,456\n     BatchNorm2d-135          [-1, 128, 28, 28]             256\n     BatchNorm2d-136          [-1, 128, 28, 28]             256\n            ReLU-137          [-1, 128, 28, 28]               0\n          Conv2d-138          [-1, 512, 28, 28]          65,536\n            ReLU-139          [-1, 128, 28, 28]               0\n          Conv2d-140          [-1, 512, 28, 28]          65,536\n     BatchNorm2d-141          [-1, 512, 28, 28]           1,024\n     BatchNorm2d-142          [-1, 512, 28, 28]           1,024\n            ReLU-143          [-1, 512, 28, 28]               0\n      Bottleneck-144          [-1, 512, 28, 28]               0\n            ReLU-145          [-1, 512, 28, 28]               0\n      Bottleneck-146          [-1, 512, 28, 28]               0\n          Conv2d-147          [-1, 128, 28, 28]          65,536\n     BatchNorm2d-148          [-1, 128, 28, 28]             256\n            ReLU-149          [-1, 128, 28, 28]               0\n          Conv2d-150          [-1, 128, 28, 28]         147,456\n     BatchNorm2d-151          [-1, 128, 28, 28]             256\n          Conv2d-152          [-1, 256, 28, 28]         131,072\n            ReLU-153          [-1, 128, 28, 28]               0\n          Conv2d-154          [-1, 512, 28, 28]          65,536\n     BatchNorm2d-155          [-1, 512, 28, 28]           1,024\n     BatchNorm2d-156          [-1, 256, 28, 28]             512\n            ReLU-157          [-1, 512, 28, 28]               0\n      Bottleneck-158          [-1, 512, 28, 28]               0\n            ReLU-159          [-1, 256, 28, 28]               0\n          Conv2d-160          [-1, 256, 14, 14]         589,824\n     BatchNorm2d-161          [-1, 256, 14, 14]             512\n            ReLU-162          [-1, 256, 14, 14]               0\n          Conv2d-163          [-1, 256, 28, 28]         131,072\n     BatchNorm2d-164          [-1, 256, 28, 28]             512\n            ReLU-165          [-1, 256, 28, 28]               0\n          Conv2d-166         [-1, 1024, 14, 14]         262,144\n     BatchNorm2d-167         [-1, 1024, 14, 14]           2,048\n          Conv2d-168          [-1, 256, 14, 14]         589,824\n          Conv2d-169         [-1, 1024, 14, 14]         524,288\n     BatchNorm2d-170          [-1, 256, 14, 14]             512\n            ReLU-171          [-1, 256, 14, 14]               0\n     BatchNorm2d-172         [-1, 1024, 14, 14]           2,048\n            ReLU-173         [-1, 1024, 14, 14]               0\n      Bottleneck-174         [-1, 1024, 14, 14]               0\n          Conv2d-175         [-1, 1024, 14, 14]         262,144\n     BatchNorm2d-176         [-1, 1024, 14, 14]           2,048\n          Conv2d-177         [-1, 1024, 14, 14]         524,288\n     BatchNorm2d-178         [-1, 1024, 14, 14]           2,048\n            ReLU-179         [-1, 1024, 14, 14]               0\n      Bottleneck-180         [-1, 1024, 14, 14]               0\n          Conv2d-181          [-1, 256, 14, 14]         262,144\n     BatchNorm2d-182          [-1, 256, 14, 14]             512\n            ReLU-183          [-1, 256, 14, 14]               0\n          Conv2d-184          [-1, 256, 14, 14]         589,824\n     BatchNorm2d-185          [-1, 256, 14, 14]             512\n            ReLU-186          [-1, 256, 14, 14]               0\n          Conv2d-187         [-1, 1024, 14, 14]         262,144\n     BatchNorm2d-188         [-1, 1024, 14, 14]           2,048\n            ReLU-189         [-1, 1024, 14, 14]               0\n      Bottleneck-190         [-1, 1024, 14, 14]               0\n          Conv2d-191          [-1, 256, 14, 14]         262,144\n     BatchNorm2d-192          [-1, 256, 14, 14]             512\n            ReLU-193          [-1, 256, 14, 14]               0\n          Conv2d-194          [-1, 256, 14, 14]         589,824\n     BatchNorm2d-195          [-1, 256, 14, 14]             512\n            ReLU-196          [-1, 256, 14, 14]               0\n          Conv2d-197          [-1, 256, 14, 14]         262,144\n          Conv2d-198         [-1, 1024, 14, 14]         262,144\n     BatchNorm2d-199          [-1, 256, 14, 14]             512\n            ReLU-200          [-1, 256, 14, 14]               0\n     BatchNorm2d-201         [-1, 1024, 14, 14]           2,048\n            ReLU-202         [-1, 1024, 14, 14]               0\n      Bottleneck-203         [-1, 1024, 14, 14]               0\n          Conv2d-204          [-1, 256, 14, 14]         262,144\n     BatchNorm2d-205          [-1, 256, 14, 14]             512\n            ReLU-206          [-1, 256, 14, 14]               0\n          Conv2d-207          [-1, 256, 14, 14]         589,824\n     BatchNorm2d-208          [-1, 256, 14, 14]             512\n            ReLU-209          [-1, 256, 14, 14]               0\n          Conv2d-210         [-1, 1024, 14, 14]         262,144\n     BatchNorm2d-211         [-1, 1024, 14, 14]           2,048\n            ReLU-212         [-1, 1024, 14, 14]               0\n      Bottleneck-213         [-1, 1024, 14, 14]               0\n          Conv2d-214          [-1, 256, 14, 14]         262,144\n     BatchNorm2d-215          [-1, 256, 14, 14]             512\n            ReLU-216          [-1, 256, 14, 14]               0\n          Conv2d-217          [-1, 256, 14, 14]         589,824\n          Conv2d-218          [-1, 256, 14, 14]         589,824\n     BatchNorm2d-219          [-1, 256, 14, 14]             512\n            ReLU-220          [-1, 256, 14, 14]               0\n     BatchNorm2d-221          [-1, 256, 14, 14]             512\n          Conv2d-222         [-1, 1024, 14, 14]         262,144\n            ReLU-223          [-1, 256, 14, 14]               0\n          Conv2d-224         [-1, 1024, 14, 14]         262,144\n     BatchNorm2d-225         [-1, 1024, 14, 14]           2,048\n            ReLU-226         [-1, 1024, 14, 14]               0\n      Bottleneck-227         [-1, 1024, 14, 14]               0\n          Conv2d-228          [-1, 256, 14, 14]         262,144\n     BatchNorm2d-229         [-1, 1024, 14, 14]           2,048\n     BatchNorm2d-230          [-1, 256, 14, 14]             512\n            ReLU-231          [-1, 256, 14, 14]               0\n          Conv2d-232          [-1, 256, 14, 14]         589,824\n            ReLU-233         [-1, 1024, 14, 14]               0\n      Bottleneck-234         [-1, 1024, 14, 14]               0\n          Conv2d-235          [-1, 256, 14, 14]         262,144\n     BatchNorm2d-236          [-1, 256, 14, 14]             512\n            ReLU-237          [-1, 256, 14, 14]               0\n     BatchNorm2d-238          [-1, 256, 14, 14]             512\n          Conv2d-239         [-1, 1024, 14, 14]         262,144\n            ReLU-240          [-1, 256, 14, 14]               0\n          Conv2d-241          [-1, 256, 14, 14]         589,824\n     BatchNorm2d-242         [-1, 1024, 14, 14]           2,048\n            ReLU-243         [-1, 1024, 14, 14]               0\n      Bottleneck-244         [-1, 1024, 14, 14]               0\n     BatchNorm2d-245          [-1, 256, 14, 14]             512\n            ReLU-246          [-1, 256, 14, 14]               0\n          Conv2d-247         [-1, 1024, 14, 14]         262,144\n     BatchNorm2d-248         [-1, 1024, 14, 14]           2,048\n          Conv2d-249          [-1, 512, 14, 14]         524,288\n            ReLU-250         [-1, 1024, 14, 14]               0\n      Bottleneck-251         [-1, 1024, 14, 14]               0\n          Conv2d-252          [-1, 256, 14, 14]         262,144\n     BatchNorm2d-253          [-1, 512, 14, 14]           1,024\n            ReLU-254          [-1, 512, 14, 14]               0\n     BatchNorm2d-255          [-1, 256, 14, 14]             512\n            ReLU-256          [-1, 256, 14, 14]               0\n          Conv2d-257          [-1, 256, 14, 14]         589,824\n     BatchNorm2d-258          [-1, 256, 14, 14]             512\n            ReLU-259          [-1, 256, 14, 14]               0\n          Conv2d-260         [-1, 1024, 14, 14]         262,144\n     BatchNorm2d-261         [-1, 1024, 14, 14]           2,048\n            ReLU-262         [-1, 1024, 14, 14]               0\n      Bottleneck-263         [-1, 1024, 14, 14]               0\n          Conv2d-264          [-1, 256, 14, 14]         262,144\n     BatchNorm2d-265          [-1, 256, 14, 14]             512\n            ReLU-266          [-1, 256, 14, 14]               0\n          Conv2d-267          [-1, 256, 14, 14]         589,824\n     BatchNorm2d-268          [-1, 256, 14, 14]             512\n            ReLU-269          [-1, 256, 14, 14]               0\n          Conv2d-270         [-1, 1024, 14, 14]         262,144\n     BatchNorm2d-271         [-1, 1024, 14, 14]           2,048\n            ReLU-272         [-1, 1024, 14, 14]               0\n      Bottleneck-273         [-1, 1024, 14, 14]               0\n          Conv2d-274          [-1, 256, 14, 14]         262,144\n     BatchNorm2d-275          [-1, 256, 14, 14]             512\n            ReLU-276          [-1, 256, 14, 14]               0\n          Conv2d-277          [-1, 256, 14, 14]         589,824\n     BatchNorm2d-278          [-1, 256, 14, 14]             512\n            ReLU-279          [-1, 256, 14, 14]               0\n          Conv2d-280         [-1, 1024, 14, 14]         262,144\n     BatchNorm2d-281         [-1, 1024, 14, 14]           2,048\n            ReLU-282         [-1, 1024, 14, 14]               0\n      Bottleneck-283         [-1, 1024, 14, 14]               0\n          Conv2d-284          [-1, 512, 14, 14]         524,288\n     BatchNorm2d-285          [-1, 512, 14, 14]           1,024\n            ReLU-286          [-1, 512, 14, 14]               0\n          Conv2d-287            [-1, 512, 7, 7]       2,359,296\n     BatchNorm2d-288            [-1, 512, 7, 7]           1,024\n          Conv2d-289            [-1, 512, 7, 7]       2,359,296\n     BatchNorm2d-290            [-1, 512, 7, 7]           1,024\n            ReLU-291            [-1, 512, 7, 7]               0\n            ReLU-292            [-1, 512, 7, 7]               0\n          Conv2d-293           [-1, 2048, 7, 7]       1,048,576\n     BatchNorm2d-294           [-1, 2048, 7, 7]           4,096\n          Conv2d-295           [-1, 2048, 7, 7]       1,048,576\n     BatchNorm2d-296           [-1, 2048, 7, 7]           4,096\n          Conv2d-297           [-1, 2048, 7, 7]       2,097,152\n     BatchNorm2d-298           [-1, 2048, 7, 7]           4,096\n            ReLU-299           [-1, 2048, 7, 7]               0\n      Bottleneck-300           [-1, 2048, 7, 7]               0\n          Conv2d-301            [-1, 512, 7, 7]       1,048,576\n          Conv2d-302           [-1, 2048, 7, 7]       2,097,152\n     BatchNorm2d-303            [-1, 512, 7, 7]           1,024\n     BatchNorm2d-304           [-1, 2048, 7, 7]           4,096\n            ReLU-305            [-1, 512, 7, 7]               0\n            ReLU-306           [-1, 2048, 7, 7]               0\n      Bottleneck-307           [-1, 2048, 7, 7]               0\n          Conv2d-308            [-1, 512, 7, 7]       2,359,296\n          Conv2d-309            [-1, 512, 7, 7]       1,048,576\n     BatchNorm2d-310            [-1, 512, 7, 7]           1,024\n            ReLU-311            [-1, 512, 7, 7]               0\n     BatchNorm2d-312            [-1, 512, 7, 7]           1,024\n          Conv2d-313           [-1, 2048, 7, 7]       1,048,576\n            ReLU-314            [-1, 512, 7, 7]               0\n     BatchNorm2d-315           [-1, 2048, 7, 7]           4,096\n            ReLU-316           [-1, 2048, 7, 7]               0\n      Bottleneck-317           [-1, 2048, 7, 7]               0\n          Conv2d-318            [-1, 512, 7, 7]       1,048,576\n     BatchNorm2d-319            [-1, 512, 7, 7]           1,024\n            ReLU-320            [-1, 512, 7, 7]               0\n          Conv2d-321            [-1, 512, 7, 7]       2,359,296\n     BatchNorm2d-322            [-1, 512, 7, 7]           1,024\n            ReLU-323            [-1, 512, 7, 7]               0\n          Conv2d-324           [-1, 2048, 7, 7]       1,048,576\n     BatchNorm2d-325           [-1, 2048, 7, 7]           4,096\n            ReLU-326           [-1, 2048, 7, 7]               0\n      Bottleneck-327           [-1, 2048, 7, 7]               0\n          Conv2d-328            [-1, 512, 7, 7]       2,359,296\n     BatchNorm2d-329            [-1, 512, 7, 7]           1,024\n            ReLU-330            [-1, 512, 7, 7]               0\n          Conv2d-331           [-1, 2048, 7, 7]       1,048,576\n     BatchNorm2d-332           [-1, 2048, 7, 7]           4,096\n            ReLU-333           [-1, 2048, 7, 7]               0\n      Bottleneck-334           [-1, 2048, 7, 7]               0\n          Conv2d-335            [-1, 512, 7, 7]       1,048,576\n     BatchNorm2d-336            [-1, 512, 7, 7]           1,024\n            ReLU-337            [-1, 512, 7, 7]               0\n          Conv2d-338            [-1, 512, 7, 7]       2,359,296\n     BatchNorm2d-339            [-1, 512, 7, 7]           1,024\n            ReLU-340            [-1, 512, 7, 7]               0\n          Conv2d-341           [-1, 2048, 7, 7]       1,048,576\n     BatchNorm2d-342           [-1, 2048, 7, 7]           4,096\n            ReLU-343           [-1, 2048, 7, 7]               0\n      Bottleneck-344           [-1, 2048, 7, 7]               0\nAdaptiveAvgPool2d-345           [-1, 2048, 1, 1]               0\nAdaptiveAvgPool2d-346           [-1, 2048, 1, 1]               0\n         Dropout-347                 [-1, 2048]               0\n         Dropout-348                 [-1, 2048]               0\n          Linear-349                 [-1, 1108]       2,270,292\n          Linear-350                 [-1, 1108]       2,270,292\n          Linear-351                   [-1, 27]          55,323\n          Linear-352                   [-1, 27]          55,323\n          ArtGen-353     [[-1, 1108], [-1, 27]]               0\n          ArtGen-354     [[-1, 1108], [-1, 27]]               0\n================================================================\nTotal params: 51,667,294\nTrainable params: 51,667,294\nNon-trainable params: 0\n----------------------------------------------------------------\nInput size (MB): 0.57\nForward/backward pass size (MB):
…
